…
Shape of train_X = (10432, 619) and train_Y = (10432, 2)
Shape of val_X = (2608, 619) and val_Y = (2608, 2)
Model: "model"
__________________________________________________________________________________________________
 Layer (type)                   Output Shape         Param #     Connected to
==================================================================================================
 input_1 (InputLayer)           [(None, 619)]        0           []

 input_2 (InputLayer)           [(None, 619)]        0           []

 input_3 (InputLayer)           [(None, 619)]        0           []

 embedding (Embedding)          (None, 619, 100)     1585100     ['input_1[0][0]']

 embedding_1 (Embedding)        (None, 619, 100)     1585100     ['input_2[0][0]']

 embedding_2 (Embedding)        (None, 619, 100)     1585100     ['input_3[0][0]']

 conv1d (Conv1D)                (None, 616, 32)      12832       ['embedding[0][0]']

 conv1d_1 (Conv1D)              (None, 614, 32)      19232       ['embedding_1[0][0]']

 conv1d_2 (Conv1D)              (None, 612, 32)      25632       ['embedding_2[0][0]']

 dropout (Dropout)              (None, 616, 32)      0           ['conv1d[0][0]']

 dropout_1 (Dropout)            (None, 614, 32)      0           ['conv1d_1[0][0]']

 dropout_2 (Dropout)            (None, 612, 32)      0           ['conv1d_2[0][0]']

 max_pooling1d (MaxPooling1D)   (None, 308, 32)      0           ['dropout[0][0]']

 max_pooling1d_1 (MaxPooling1D)  (None, 307, 32)     0           ['dropout_1[0][0]']

 max_pooling1d_2 (MaxPooling1D)  (None, 306, 32)     0           ['dropout_2[0][0]']

 flatten (Flatten)              (None, 9856)         0           ['max_pooling1d[0][0]']

 flatten_1 (Flatten)            (None, 9824)         0           ['max_pooling1d_1[0][0]']

 flatten_2 (Flatten)            (None, 9792)         0           ['max_pooling1d_2[0][0]']

 concatenate (Concatenate)      (None, 29472)        0           ['flatten[0][0]',
                                                                  'flatten_1[0][0]',
                                                                  'flatten_2[0][0]']

 dense (Dense)                  (None, 10)           294730      ['concatenate[0][0]']

 dense_1 (Dense)                (None, 2)            22          ['dense[0][0]']

==================================================================================================
Total params: 5,107,748
Trainable params: 352,448
Non-trainable params: 4,755,300
__________________________________________________________________________________________________
None
Epoch 1/100
326/326 [==============================] - ETA: 0s - loss: 0.6105 - accuracy: 0.6645  
…
